…
fashion_model.add(MaxPooling2D(pool_size=(2, 2),padding='same'))
fashion_model.add(Flatten())
fashion_model.add(Dense(128, activation='linear'))
fashion_model.add(LeakyReLU(alpha=0.1))                  
fashion_model.add(Dense(num_classes, activation='softmax'))


fashion_model.compile(loss=keras.losses.categorical_crossentropy, optimizer=keras.optimizers.Adam(),metrics=['accuracy'])
fashion_model.summary()


_________________________________________________________________
Layer (type)                 Output Shape              Param #   
=================================================================
conv2d_7 (Conv2D)            (None, 28, 28, 32)        320       
_________________________________________________________________
leaky_re_lu_9 (LeakyReLU)    (None, 28, 28, 32)        0         
_________________________________________________________________
max_pooling2d_7 (MaxPooling2 (None, 14, 14, 32)        0         
_________________________________________________________________
conv2d_8 (Conv2D)            (None, 14, 14, 64)        18496     
_________________________________________________________________
leaky_re_lu_10 (LeakyReLU)   (None, 14, 14, 64)        0         
_________________________________________________________________
max_pooling2d_8 (MaxPooling2 (None, 7, 7, 64)          0         
_________________________________________________________________
conv2d_9 (Conv2D)            (None, 7, 7, 128)         73856     
_________________________________________________________________
leaky_re_lu_11 (LeakyReLU)   (None, 7, 7, 128)         0         
_________________________________________________________________
max_pooling2d_9 (MaxPooling2 (None, 4, 4, 128)         0         
_________________________________________________________________
flatten_3 (Flatten)          (None, 2048)              0         
_________________________________________________________________
dense_5 (Dense)              (None, 128)               262272    
_________________________________________________________________
leaky_re_lu_12 (LeakyReLU)   (None, 128)               0         
_________________________________________________________________
dense_6 (Dense)              (None, 10)                1290      
=================================================================
Total params: 356,234
Trainable params: 356,234
Non-trainable params: 0
_________________________________________________________________


fashion_train = fashion_model.fit(train_X, train_label, batch_size=batch_size,epochs=epochs,verbose=1,validation_data=(valid_X, valid_label))


Train on 48000 samples, validate on 12000 samples
…
